…
__________________________________________________________________________________________________
Layer (type)                    Output Shape         Param #     Connected to
==================================================================================================
input_1 (InputLayer)            [(None, 1)]          0
__________________________________________________________________________________________________
input_2 (InputLayer)            [(None, 1)]          0
__________________________________________________________________________________________________
embedding (Embedding)           (None, 1, 15)        24735       input_1[0][0]
__________________________________________________________________________________________________
embedding_1 (Embedding)         (None, 1, 15)        35865       input_2[0][0]
__________________________________________________________________________________________________
flatten (Flatten)               (None, 15)           0           embedding[0][0]
__________________________________________________________________________________________________
flatten_1 (Flatten)             (None, 15)           0           embedding_1[0][0]
__________________________________________________________________________________________________
concatenate (Concatenate)       (None, 30)           0           flatten[0][0]
                                                                 flatten_1[0][0]
__________________________________________________________________________________________________
dense (Dense)                   (None, 128)          3968        concatenate[0][0]
__________________________________________________________________________________________________
dropout (Dropout)               (None, 128)          0           dense[0][0]
__________________________________________________________________________________________________
dense_1 (Dense)                 (None, 64)           8256        dropout[0][0]
__________________________________________________________________________________________________
dropout_1 (Dropout)             (None, 64)           0           dense_1[0][0]
__________________________________________________________________________________________________
dense_2 (Dense)                 (None, 32)           2080        dropout_1[0][0]
__________________________________________________________________________________________________
dense_4 (Dense)                 (None, 1)            33          dense_2[0][0]
==================================================================================================
Total params: 74,937
Trainable params: 74,937
Non-trainable params: 0

Model Architecture:
input_movies = keras.layers.Input(shape=[1])
embed_movies = keras.layers.Embedding(nmovie_id+1, 15)(input_movies)
movies_out = keras.layers.Flatten()(embed_movies)

input_users = keras.layers.Input(shape=[1])
…
